model.tflite (tflite, 708544 bytes, 9 tensors)

dense/bias f4 [64]
-0.0060051535 -0.010004177 -0.010065759 0.027606972 -0.0060052783 -0.006453408 -0.012341284 -0.008917888
-0.0122679155 -0.020464528 0.0013807976 -0.0063315937 -0.006004224 -0.014574144 -0.0076639466 -0.006005147
-0.009571254 -0.020587396 -0.020553222 -0.006222107 -0.0060047926 -0.021565346 -0.005346532 0.0150834685
0.0010102516 -0.008947761 0.025781073 -0.0066385134 -0.010968289 -0.015552203 -0.0075753257 -0.007682618
-0.006602958 -0.012483052 -0.006002681 -0.022417523 -0.0060301535 -0.0060051824 -0.005344917 0.021977609
0.032587957 0.0059708566 -0.02280466 -0.0051553533 -0.006221083 -0.005257682 0.012418928 -0.018789215
-0.012256539 -0.009667028 -0.006005109 -0.005779628 -0.0071947323 -0.0058409693 -0.0011608321 -0.014332645
-0.0057595014 -0.0060051703 -0.0072808284 -0.006005224 -0.0084422305 -0.02501072 -0.0102597615 -0.008810191
00000000: e1c6 c4bb 8fe8 23bc daea 24bc 0428 e23c
00000010: edc7 c4bb 1c77 d3bb 1933 4abc 551c 12bc
00000020: 5eff 48bc 3aa5 a7bc e1fb b43a 4279 cfbb
00000030: 15bf c4bb 64c8 6ebc d821 fbbb d3c6 c4bb
00000040: c0d0 1cbc e6a6 a8bc 3b5f a8bc d1e2 cbbb
00000050: dac3 c4bb cfa9 b0bc f631 afbb a720 773c
00000060: 6b6a 843a a199 12bc d432 d33c e387 d9bb
00000070: 57b4 33bc abce 7ebc 703a f8bb 79be fbbb
00000080: a05d d8bb b785 4cbc 23b2 c4bb f4a4 b7bc
00000090: 9898 c5bb 1fc7 c4bb 6a24 afbb 630a b43c
000000a0: f37a 053d 2da7 c33b d7d0 babc 3dee a8bb
000000b0: 3ada cbbb a248 acbb c278 4b3c d7eb 99bc
000000c0: a7cf 48bc 7462 1ebc 81c6 c4bb 0963 bdbb
000000d0: cac1 ebbb 9a65 bfbb 1027 98ba 78d3 6abc
000000e0: 33ba bcbb 05c7 c4bb 0494 eebb 78c7 c4bb
000000f0: 4851 0abc 48e3 ccbc 8f18 28bc 9f58 10bc

conv2d_2/bias f4 [64]
-0.037760977 0.0045898533 0.04367389 -0.01712711 -0.0012439443 0.024085613 0.036815003 0.033506226
0.0067139594 0.018867683 0.005336965 0.019600824 -0.009921907 -0.02604294 -0.014419647 -0.004496619
-0.029962635 0.022776611 0.03357151 -0.0040675737 0.0023033612 0.026444364 0.015755957 -0.017612088
0.0094056595 0.02624018 0.008594992 -0.023529315 -0.018209348 0.029424911 0.0286451 0.016668981
-0.023447128 -0.02104497 0.0073305997 0.0051770853 0.016649712 -0.0055024326 -0.06423657 -0.024080992
-0.020743242 -0.074958846 -0.01702764 0.024578877 -0.008406845 -0.027864179 -0.0017894831 -0.058756143
-0.0052242135 0.015364283 0.0004528461 -0.018501053 0.021508833 0.0036842236 -0.036003236 0.010753616
0.021722646 0.025112547 -0.007337695 0.00022821322 -0.016814372 -0.0027705217 0.0014717903 0.05555104
00000000: 41ab 1abd 7b66 963b 65e3 323d 274e 8cbc
00000010: d80b a3ba 314f c53c 54cb 163d d33d 093d
00000020: c600 dc3b 6690 9a3c b5e1 ae3b e891 a03c
00000030: 7f8f 22bc 0158 d5bc 6240 6cbc 6058 93bb
00000040: 3374 f5bc 0496 ba3c 4882 093d 4849 85bb
00000050: fdf3 163b daa1 d83c a312 813c 3a47 90bc
00000060: 321a 1a3c a5f5 d63c 02d2 0c3c 8dc0 c0bc
00000070: c52b 95bc 830c f13c 21a9 ea3c 638d 883c
00000080: 3114 c0bc 8066 acbc 8735 f03b 8aa4 a93b
00000090: fa64 883c c04d b4bb 768e 83bd 8045 c5bc
000000a0: bbed a9bc 0684 99bd 8d7d 8bbc a459 c93c
000000b0: ddbc 09bc 6b43 e4bc 178d eaba 48aa 70bd
000000c0: e12f abbb 79ba 7b3c fa6b ed39 858f 97bc
000000d0: 4b33 b03c 0473 713b 2178 13bd ef2f 303c
000000e0: b1f3 b13c d4b8 cd3c 0c71 f0bb 854c 6f39
000000f0: 4bbe 89bc a491 35bb 16e9 c03a 7d89 633d

conv2d_1/bias f4 [32]
-0.024121761 -0.015827606 -0.047213733 0.009395449 0.02627857 -0.011734055 -0.028852852 -0.107535735
-0.03609321 -0.019918438 0.03791216 -0.09121318 -0.010607696 -0.083503395 0.0641222 -0.072686434
-0.041180767 -0.035900787 -0.025735 -0.024032693 -0.025159424 -0.036514036 0.040900327 -0.027913189
0.05368386 -0.055884358 -0.023924736 0.009416145 -0.071231164 0.033007246 0.0037244165 -0.054167833
00000000: 009b c5bc e5a8 81bc 3063 41bd 5fef 193c
00000010: 2846 d73c 3240 40bc d15c ecbc b23b dcbd
00000020: 79d6 13bd fe2b a3bc c849 1b3d facd babd
00000030: e7cb 2dbc d403 abbd 8052 833d a0dc 94bd
00000040: 2aad 28bd b40c 13bd 35d2 d2bc 36e0 c4bc
00000050: 231b cebc be8f 15bd 1a87 273d 33aa e4bc
00000060: 9be3 5b3d ffe6 64bd cffd c3bc 2d46 1a3c
00000070: a5e1 91bd 9b32 073d 5715 743b 17df 5dbd

conv2d/bias f4 [32]
-0.032302707 0.0147099495 -0.0034917954 0.05167421 0.032302525 0.06895479 0.039344966 0.03303917
0.0065984554 0.02937671 0.0064069564 0.048936017 -0.016498538 -0.056330714 0.005424565 0.022069389
-0.03042986 -0.08240473 -9.48456e-06 0.10179976 0.018231284 0.04566596 0.071357414 -0.007331783
0.020571427 -0.06663092 0.040921625 -0.059491623 0.025502812 -0.06471243 -0.009376992 0.014174804
00000000: d84f 04bd 0002 713c 9bd6 64bb 56a8 533d
00000010: a74f 043d 2b38 8d3d 3028 213d 1554 073d
00000020: db37 d83b 6da7 f03c 72f1 d13b 2271 483d
00000030: f127 87bc 09bb 66bd 8dc0 b13b ddca b43c
00000040: 0b48 f9bc d0c3 a8bd e01f 1fb7 647c d03d
00000050: c659 953c 3b0c 3b3d d623 923d 743f f0bb
00000060: 6985 a83c cb75 88bd 6f9d 273d 7dad 73bd
00000070: 46eb d03c f387 84bd f4a1 19bc 703d 683c

sequential/dense/MatMul f4 [64, 2304]
0.03246619 -0.020848267 -0.016557928 -0.04440695 -0.0052030035 -0.029169366 0.012096446 -0.010421138
-0.040750798 -0.03675913 0.03834645 -0.030268924 -0.018615887 0.014129803 0.011668041 0.009202643
-0.043661576 -0.043246698 0.0346082 -0.028692747 -0.03810462 -0.046036333 0.042431347 -0.04689873
-0.048507843 -0.0036364011 0.0055536325 0.034272507 -0.0013969189 -0.029179119 -0.015084278 -0.048926644
-0.0014887232 -0.009623577 0.036884528 0.011255423 -0.023483599 -0.031144135 0.03198307 0.00057585054
0.033121295 -0.053803433 -0.009163003 -0.030268991 -0.027670568 0.0011849143 -0.00804082 -0.032210283
0.0050086193 -0.025379676 -0.025774352 0.039315403 -0.038532846 -0.044628583 0.017807884 -0.0063722706
0.032336034 0.011183717 -0.045106303 -0.046248477 -0.00486212 -0.030552596 0.03320865 0.00530738
-0.013477599 -0.025895875 0.0036956782 0.018470127 -0.0023483888 -0.0069669746 -0.009662885 -0.042867787
0.024651093 0.0062273717 -0.03234034 -0.035919067 0.0008221194 -0.011197929 0.0061098617 -0.012063521
-0.03168953 0.047347598 0.0137587115 0.019721247 -0.030544916 -0.0097284075 -0.03198533 0.006466454
0.024586927 0.013864584 0.023720099 0.020769384 -0.054497037 0.010027811 -0.024274418 0.0353532
-0.010123701 0.030031765 -0.029174253 -0.040113322 0.0108460905 0.02265606 0.03856755 -0.048664894
0.015355036 0.022450686 0.03210275 -0.009659448 -0.006696336 -0.03278595 -0.014851737 -0.027691005
-0.0016860478 0.04227741 -0.032993283 0.0041424492 -0.022276158 0.020960422 -0.017683864 0.02952071
-0.007654514 0.02643802 -0.047369905 -0.048357107 0.013688326 -0.046201546 -0.020780247 -0.037335683
-0.013501589 -0.04625572 -0.0314761 -0.02121427 0.002149324 -0.05565105 -0.019959906 0.04375361
0.02932262 -0.031405646 -0.011905503 -0.04571647 0.04998123 0.021556085 0.007098317 -0.024264185
0.03732149 0.034501173 0.031006299 0.03907925 0.011093061 -0.021425003 -0.03979746 0.02302554
-0.014573183 -0.013249751 -0.030456223 0.028324934 -0.015650988 0.0068598734 -0.05069112 -0.055325825
-0.039868664 -0.02653947 0.013178108 -0.013253503 0.028568614 -0.04418749 -0.026098337 0.010914676
-0.044123963 0.010093352 0.0221858 0.00072457374 -0.017332286 -0.012953863 0.00572936 -0.042539507
-0.039355196 0.024411388 -0.030275699 0.023621112 0.033770047 -0.018112522 0.021769455 -0.04794292
-0.044770364 0.0117465295 -0.04465683 -0.042962316 0.03463634 -0.030839005 0.002534328 -0.020798165
-0.007315335 0.03654127 -0.017748423 0.012330259 0.041840453 -0.0018527715 0.03534943 0.006475538
0.030356817 -0.040087767 -0.01945432 0.029587666 0.034077674 0.03074608 0.031187443 -0.025437644
0.036934633 0.013132669 -0.021238966 -0.00047635287 -0.025392583 -0.0068891374 0.031714484 0.005831215
-0.03819099 0.024050273 -0.012157332 -0.04283601 -0.023973549 0.020323155 -0.039349444 -0.016086914
0.002037974 -0.053700816 0.0064520463 0.0034592014 -0.024316764 -0.043693997 0.017573461 -0.02387294
0.03584781 0.0065334947 -0.054659538 -0.0010058968 0.03542468 -0.001691319 -0.003359381 -0.040133998
0.02948753 0.042760022 -0.02752708 0.017540436 0.03832119 -0.019075623 -0.012865811 0.025322665
-0.033204503 0.046612248 -0.053811196 -0.038186163 -0.035948448 -0.04170079 0.042253766 -0.016407602
00000000: 45fb 043d fcc9 aabc 7ea4 87bc 10e4 35bd
00000010: f57d aabb 98f4 eebc 2c30 463c 6cbd 2abc
00000020: 4fea 26bd be90 16bd 2b11 1d3d 89f6 f7bc
00000030: 5880 98bc b080 673c 502b 3f3c afc6 163c
00000040: 7bd6 32bd 7323 31bd 54c1 0d3d 0d0d ebbc
00000050: 9713 1cbd 9890 3cbd 7ecc 2d3d e218 40bd
00000060: 29b0 46bd b050 6ebb 3ffb b53b 5461 0c3d
00000070: d218 b7ba 0c09 efbc 0c24 77bc 4e67 48bd
00000080: 4321 c3ba 35ac 1dbc 3b14 173d aa68 383c
00000090: ad60 c0bc fc21 ffbc ae00 033d adf4 163a
000000a0: 32aa 073d fd60 5cbd 6c20 16bc adf6 f7bc
000000b0: 63ad e2bc 204f 9b3a a5bd 03bc eeee 03bd
000000c0: 581f a43b 0ae9 cfbc bc24 d3bc 3009 213d
000000d0: 9ed4 1dbd 76cc 36bd d7e1 913c 7bce d0bb
000000e0: ca72 043d e93b 373c 63c1 38bd 0b6f 3dbd
000000f0: 6b52 9fbb 7049 fabc cb05 083d 88e9 ad3b
00000100: 26d1 5cbc 9623 d4bc 3133 723b aa4e 973c
00000110: 6de7 19bb 384b e4bb 1451 1ebc 2296 2fbd
00000120: 17f1 c93c fb0e cc3b 4e77 04bd df1f 13bd
00000130: 8083 573a 8577 37bc 3c35 c83b 13a6 45bc
00000140: e1cc 01bd 8eef 413d 386c 613c 748e a13c
00000150: 5539 fabc e663 1fbc 0d03 03bd 8ce4 d33b
00000160: 866a c93c 4828 633c a750 c23c 8e24 aa3c
00000170: 4938 5fbd b04b 243c 25db c6bc 84ce 103d
00000180: e1dd 25bc 2d05 f63c d8fe eebc de4d 24bd
00000190: cdb3 313c 3499 b93c 02f9 1d3d d754 47bd
000001a0: b093 7b3c 80ea b73c 2c7e 033d a942 1ebc
000001b0: f06c dbbb 8f4a 06bd b354 73bc 3fd8 e2bc
000001c0: 60fe dcba 142b 2d3d f723 07bd 62bd 873b
000001d0: 7d7c b6bc 31b5 ab3c c0dd 90bc 6bd5 f13c
000001e0: b8d2 fabb 8c94 d83c f206 42bd 1a12 46bd
000001f0: 0045 603c d53d 3dbd 563b aabc 4ded 18bd
00000200: c535 5dbc a376 3dbd 15ed 00bd 8cc9 adbc
00000210: acdb 0c3b 5bf2 63bd f582 a3bc fc36 333d
00000220: fe35 f03c 35a3 00bd 4d0f 43bc 3141 3bbd
00000230: 1eb9 4c3d 6396 b03c 0099 e83b afc5 c6bc
00000240: 6bde 183d 1a51 0d3d ec00 fe3c 9011 203d
00000250: acbf 353c 7d83 afbc a902 23bd 0fa0 bc3c
00000260: 5cc4 6ebc 7c15 59bc 547f f9bc b109 e83c
00000270: 8036 80bc cac8 e03b 7ea1 4fbd 559d 62bd
00000280: 534d 23bd 4d69 d9bc fee8 573c 3825 59bc
00000290: ba08 ea3c f1fd 34bd 2ecc d5bc 78d3 323c
000002a0: 54bb 34bd 965e 253c ffbe b53c 52f1 3d3a
000002b0: 70fc 8dbc 703c 54bc 5bbd bb3b e83d 2ebd
000002c0: ea32 21bd 64fa c73c be04 f8bc 1081 c13c
000002d0: 7652 0a3d b660 94bc db55 b23c cc5f 44bd
000002e0: 2161 37bd 8474 403c 15ea 36bd 41f9 2fbd
000002f0: d6de 0d3d 15a2 fcbc f816 263b ea60 aabc
00000300: 7ab5 efbb 4cac 153d 2465 91bc db04 4a3c
00000310: e560 2b3d b2d8 f2ba 90ca 103d c030 d43b
00000320: dcae f83c 1233 24bd ab5e 9fbc d561 f23c
00000330: 0895 0b3d 34df fb3c cf7c ff3c 9b62 d0bc
00000340: c548 173d 682a 573c 57fd adbc 00bf f9b9
00000350: 1b04 d0bc 46be e1bb 0ce7 013d c713 bf3b
00000360: 286e 1cbd 1405 c53c 8c2f 47bc d074 2fbd
00000370: 2d64 c4bc bf7c a63c e22c 21bd b4c8 83bc
00000380: 888f 053b 63f5 5bbd b06b d33b c5b3 623b
00000390: f333 c7bc 7af8 32bd 38f6 8f3c 2f91 c3bc
000003a0: 27d5 123d ed16 d63b aee2 5fbd 4cd8 83ba
000003b0: 7819 113d 40af ddba 1029 5cbb 8c63 24bd
000003c0: d58f f13c 2225 2f3d 7980 e1bc f6b0 8f3c
000003d0: aef6 1c3d 7b44 9cbc 1fcb 52bc 7a71 cf3c
000003e0: 7201 08bd 7cec 3e3d 2169 5cbd 1869 1cbd
000003f0: ae3e 13bd 73ce 2abd 4912 2d3d 3c69 86bc

sequential/dense_1/MatMul f4 [1, 64]
0.16926697 -0.28459373 -0.09824409 0.36093837 0.25686198 -0.3576916 -0.38706475 0.08349933
0.24908121 -0.22015756 -0.3085295 -0.0027472945 0.23023833 -0.23191161 -0.14013408 0.20671119
-0.2489978 -0.15525562 -0.1549306 -0.33711445 0.20479985 -0.16031794 -0.17986932 0.085595265
-0.17136213 -0.12506476 0.22369239 -0.057255212 -0.003740929 -0.112753145 -0.27822372 -0.13873544
0.2201873 0.23722713 0.047908813 -0.112311594 -0.25039783 0.099266484 0.14619964 0.30660167
0.3132271 -0.21047784 -0.16129442 0.086607836 0.23939276 0.0018791776 -0.35121438 0.12489834
-0.12029419 -0.13337786 0.23940396 -0.13978353 -0.2564607 -0.30555344 -0.20763102 -0.22430755
-0.03673808 0.28350842 0.059082977 0.14967057 0.195438 -0.24876109 -0.33026966 -0.18389827
00000000: 5254 2d3e 45b6 91be 3334 c9bd eacc b83e
00000010: 6a83 833e 5a23 b7be 5a2d c6be b201 ab3d
00000020: 250f 7f3e fc70 61be 94f7 9dbe f40b 34bb
00000030: 99c3 6b3e 3d7a 6dbe 4f7f 0fbe 19ac 533e
00000040: 47f9 7ebe 54fb 1ebe 21a6 1ebe 449a acbe
00000050: 0db7 513e 632a 24be aa2f 38be 924c af3d
00000060: 8e79 2fbe fa10 00be 9e0f 653e 7184 6abd
00000070: 602a 75bb 1feb e6bd 5773 8ebe aa10 0ebe
00000080: c878 613e abeb 723e 083c 443d 9f03 e6bd
00000090: 2534 80be 3a4c cb3d 5cb5 153e e5fa 9c3e
000000a0: 4d5f a03e 8187 57be 5d2a 25be 735f b13d
000000b0: 6023 753e bd4e f63a 5fd2 b3be b3ca ff3d
000000c0: cd5c f6bd 3594 08be 5026 753e 6a23 0fbe
000000d0: d14e 83be 8071 9cbe 3a9d 54be e1b0 65be
000000e0: ab7a 16bd 0428 913e fe00 723d 3e43 193e
000000f0: e620 483e 3abb 7ebe 1b19 a9be d44f 3cbe

sequential/conv2d/Conv2D f4 [32, 3, 3, 3]
0.18695569 0.22386666 0.25724635 0.010922923 0.11307395 -0.019109271 -0.048488293 0.03893656
0.018498218 0.025836926 0.19381918 0.14898606 -0.08184943 -0.07379365 -0.12308196 -0.1676068
-0.02288536 0.037165284 0.137962 0.094263546 0.20976152 -0.17878932 0.06586236 -0.05978303
-0.16762581 -0.20806855 -0.0114200665 -0.098688215 -0.12733732 0.12421923 -0.0016425168 0.09098428
-0.10645806 0.26065886 0.05524959 0.23408537 -0.051785864 0.039701056 0.09847938 0.034318995
-0.050399613 -0.13540478 0.08188829 0.08081792 0.12253234 -0.074373454 -0.05587229 -0.16653903
-0.04783326 -0.08908693 -0.068991125 -0.13577718 -0.1387124 0.111594714 -0.04753688 -0.16899031
-0.17119704 -0.14315371 0.014242359 0.11708038 -0.15039629 0.062249478 -0.14862548 -0.14464313
-0.18836062 -0.035007484 0.078259915 -0.016956076 0.16048521 0.09775343 -0.010429955 -0.008292059
0.1700396 0.07914734 0.0011430301 0.17376666 0.11376435 0.17739668 0.061047714 0.10077169
-0.0923054 0.06433443 -0.0036766387 -0.19552489 -0.08445877 0.15082343 -0.008686696 -0.15469429
-0.17141007 0.016740764 -0.15613858 -0.2146295 -0.021906434 0.14741416 -0.07658148 0.11193123
0.10425228 -0.07954883 -0.07294054 0.020088717 0.033205803 0.13137649 0.19401605 0.04387414
0.19915295 -0.13071941 -0.054798007 -0.14789349 -0.030532109 -0.1483162 -0.16547994 0.059039515
-0.083063446 0.09579285 0.10542572 -0.036185257 -0.0073941993 -0.00073039625 -0.07892386 -0.08266636
0.08396366 -0.027826538 -0.067637086 -0.15555853 -0.11791922 -0.13943909 -0.09156334 0.09822963
-0.069643654 0.087133035 -0.025860902 0.1953847 0.13012844 0.105249345 0.110211715 0.12274006
-0.044885296 -0.0889027 0.071964346 0.14825414 0.09338197 0.12408154 0.138471 0.10153602
-0.14428434 -0.09270511 0.043789946 -0.15664199 -0.14225854 -0.08882739 -0.16919918 -0.0293358
-0.17065836 -0.109610684 0.032404542 -0.13230465 -0.13290444 0.051058594 0.09734489 0.00048224855
-0.16015399 -0.20119266 -0.23950309 -0.32942668 -0.24199241 -0.119568326 0.034939215 0.09875478
-0.0466766 0.114975356 0.06320129 -0.19350776 -0.1445988 -0.28915048 -0.013765965 -0.16946177
-0.15489443 0.21203308 0.06314104 0.20716456 -0.17518474 -0.23929012 -0.2450915 -0.17410102
-0.20267789 -0.010654179 0.22037548 0.050161593 0.1653271 0.110534616 -0.015724381 -0.045649443
0.17922081 0.20065796 0.045413684 -0.0964625 0.043196335 -0.10864889 -0.1722386 0.041104898
-0.026131516 -0.06826586 0.17572471 0.06919152 -0.17439952 -0.06973841 -0.17682867 -0.054897554
-0.022227116 -0.085110985 0.12150954 -0.04509565 0.054411046 0.0019130157 -0.06423563 -0.095489904
0.04516699 0.037310794 -0.10604915 -0.20975067 -0.17290406 -0.04360426 -0.03698454 -0.21046828
-0.18347049 0.13134623 -0.05965688 0.11233325 0.10537456 0.15128554 0.039358813 0.18579693
0.053996436 0.12540162 -0.028467398 0.0137238735 -0.1471079 0.10367658 -0.12500076 -0.10896877
0.06260697 0.021593552 0.091127835 -0.0379844 0.0022387954 -0.004496526 0.017789038 0.08113174
0.15930533 -0.09519796 -0.06892626 0.035481673 0.050073333 -0.13751169 0.024870662 0.056242634
00000000: 5071 3f3e 4d3d 653e cbb5 833e 0ff6 323c
00000010: 5193 e73d 0c8b 9cbc a99b 46bd f17b 1f3d
00000020: 9389 973c f6a7 d33c 8978 463e cd8f 183e
00000030: ada0 a7bd 2021 97bd 6512 fcbd 1ea1 2bbe
00000040: 147a bbbc a03a 183d e945 0d3e 3f0d c13d
00000050: b9cb 563e 8c14 37be d8e2 863d 0ddf 74bd
00000060: 1aa6 2bbe ec0f 55be 3b1b 3bbc 0c1d cabd
00000070: b764 02be a766 fe3d b849 d7ba f755 ba3d
00000080: af06 dabd 1475 853e 654d 623d 13b4 6f3e
00000090: 6a1d 54bd 939d 223d 8faf c93d 1392 0c3d
000000a0: d36f 4ebd 8da7 0abe 0cb5 a73d de83 a53d
000000b0: 3cf2 fa3d 1c51 98bd 58da 64bd 3589 2abe
000000c0: cfec 43bd 3573 b6bd 384b 8dbd 2c09 0bbe
000000d0: a00a 0ebe c58b e43d 08b6 42bd cc0b 2dbe
000000e0: 474e 2fbe e396 12be c958 693c d7c7 ef3d
000000f0: 7c01 1abe 4ff9 7e3d 4731 18be 541d 14be
00000100: 9be1 40be 0264 0fbd bc46 a03d 78e7 8abc
00000110: 3c56 243e f332 c83d 67e2 2abc 6bdb 07bc
00000120: dc1e 2e3e 0018 a23d bad1 953a e3ef 313e
00000130: 49fd e83d 7aa7 353e 2b0d 7a3d 6361 ce3d
00000140: 9d0a bdbd c5c1 833d c3f3 70bb ad37 48be
00000150: b8f8 acbd 7571 1a3e a552 0ebc 2e68 1ebe
00000160: 1f86 2fbe ed23 893c cbe2 1fbe d6c7 5bbe
00000170: 1f75 b3bc bdf3 163e c0d6 9cbd 333c e53d
00000180: 3882 d53d 7fea a2bd da61 95bd 1891 a43c
00000190: cf02 083d 8f87 063e 25ac 463e 5fb5 333d
000001a0: c0ee 4b3e 4fdb 05be e073 60bd 6471 17be
000001b0: 791e fabc 34e0 17be 9373 29be 6bd3 713d
000001c0: 2b1d aabd 0b2f c43d 71e9 d73d fe36 14bd
000001d0: 0a4b f2bb 1078 3fba d5a2 a1bd fb4c a9bd
000001e0: 24f5 ab3d 7bf4 e3bc 5085 8abd bc4a 1fbe
000001f0: a27f f1bd 1fc9 0ebe 8f85 bbbd 9e2c c93d
00000200: 55a1 8ebd ce72 b23d 3eda d3bc ed12 483e
00000210: 6440 053e f88c d73d aeb6 e13d 245f fb3d
00000220: a5d9 37bd 9e12 b6bd 0b62 933d efcf 173e
00000230: 0c3f bf3d 761e fe3d 58cb 0d3e 1ef2 cf3d
00000240: 46bf 13be 2ddc bdbd 165d 333d c266 20be
00000250: 39ac 11be 22eb b5bd 8d42 2dbe a251 f0bc
00000260: 11c1 2ebe 917b e0bd a0ba 043d df7a 07be
00000270: 1a18 08be d122 513d c25c c73d 4ed6 fc39
00000280: 68ff 23be 7305 4ebe 4c40 75be 9daa a8be
00000290: dccc 77be 3de0 f4bd 6c1c 0f3d f23f ca3d
000002a0: f62f 3fbd 3378 eb3d ae6f 813d e626 46be
000002b0: b511 14be 880b 94be a48a 61bc 6387 2dbe
000002c0: a59c 1ebe 331f 593e 1750 813d f222 543e
000002d0: a163 33be 7808 75be 44f9 7abe 8a47 32be
000002e0: cb8a 4fbe de8e 2ebc 1caa 613e 3e76 4d3d
000002f0: 824b 293e f95f e23d 6bd0 80bc e9fa 3abd
00000300: a985 373e 4879 4d3e b303 3a3d 228e c5bd
00000310: a4ee 303d 4f83 debd 515f 30be 9c5d 283d
00000320: c311 d6bc f9ce 8bbd 2ef1 333e 49b4 8d3d
00000330: ca95 32be 03d3 8ebd 9312 35be 42dc 60bd
00000340: a415 b6bc ab4e aebd fed9 f83d 37b6 38bd
00000350: 1ede 5e3d 28be fa3a f88d 83bd 3690 c3bd
00000360: 0601 393d 34d3 183d 4c30 d9bd e1c8 56be
00000370: c30d 31be 619a 32bd 1a7d 17bd ff84 57be
00000380: b0df 3bbe a07f 063e c65a 74bd fa0e e63d
00000390: 9ece d73d 99ea 1a3e b536 213d 8d41 3e3e
000003a0: 5e2b 5d3d 4869 003e 7634 e9bc 19da 603c
000003b0: 74a3 16be 6354 d43d 3300 00be 052b dfbd
000003c0: 1538 803d f6e4 b03c 3ba1 ba3d 8895 1bbd
000003d0: c1b8 123b 9857 93bb 51ba 913c 6628 a63d
000003e0: f020 233e 26f7 c2bd 3629 8dbd 3b55 113d
000003f0: b219 4d3d ddcf 0cbe 8fbd cb3c ad5e 663d

sequential/conv2d_1/Conv2D f4 [32, 3, 3, 32]
0.072658755 -0.17362006 -0.034951326 -0.103119604 -0.13382554 -0.10355212 -0.024358807 -0.12937723
0.07148826 0.006890371 0.02107249 -0.1109033 0.1394377 -0.027889717 -0.13707623 -0.06444646
-0.036327258 0.1595615 -0.089999214 0.0022691996 0.02857609 0.047804583 0.06532876 -0.011676278
-0.04177752 0.11871847 -0.19649374 0.083562516 0.12383286 0.11860308 0.011711029 -0.056467842
-0.097872235 0.09959221 -0.03961438 0.057758484 -0.016565284 -0.086379126 -0.196489 0.080752864
0.11480377 0.10930579 -0.069404066 -0.14697947 0.1215841 -0.024983374 -0.10869961 -0.060387902
0.09212899 0.06208761 0.07224534 -0.15105167 0.12187248 -0.014266679 -0.041098204 -0.022134002
0.12185676 0.12456183 0.15617321 -0.037257668 0.13065587 -0.036192615 0.24531683 0.06016487
0.12931964 -0.008887551 0.059519112 -0.06784856 0.023099385 -0.13690375 -0.090212986 -0.094717436
0.011757332 0.1079759 -0.039192297 0.07344054 0.022748832 -0.09303211 -0.045772765 -2.6739697e-05
0.050263036 0.052263077 -0.021402493 -0.13316263 0.057366725 0.039607756 -0.035073034 0.11259493
0.010659727 -0.013755867 -0.19220835 -0.08411383 0.15863511 0.035579365 0.22327343 0.1209071
-0.011676568 -0.22767223 -0.08605035 -0.06560652 -0.11215784 -0.051568713 -0.0981295 0.03174985
-0.105367295 -0.02054299 -0.091001384 0.047772143 0.13453436 -0.08316322 -0.012082145 -0.0881347
-0.09897451 -0.09655719 -0.032717936 0.13716368 0.0678693 0.002642352 0.01770137 -0.08948604
0.21283406 -0.06928101 -0.26324955 0.11743146 0.10302125 -0.14443557 0.0998236 0.090379834
0.015921565 0.2082425 -0.121272646 -0.06846606 0.038010642 0.0836795 0.034704503 -0.08497271
-0.036835063 0.05761618 0.10681338 -0.11364362 -0.09790967 -0.1663917 0.0175498 0.15797028
-0.029807694 0.052637227 0.029729284 -0.04586403 0.0047706454 -0.042884998 -0.010042228 0.037861846
0.10091086 0.037561398 -0.003978932 0.18345614 0.06398192 0.1398686 0.14563169 0.01526183
-0.07686548 -0.03789391 0.17588587 -0.037706774 0.14302494 0.015635747 -0.055007465 -0.074708745
0.10243669 -0.06733097 0.13789901 -0.06589386 0.057682313 -0.004582145 0.19402334 -0.06288574
0.12319496 0.14956594 0.039869238 0.07309326 -0.033674136 -0.10734401 -0.006089907 0.06564239
0.07732501 0.0029211957 -0.13229167 -0.04933035 -0.002342572 0.06709773 0.12417212 -0.0059989155
-0.0062855845 -0.10779955 -0.09136146 0.03236431 -0.056269113 0.056990214 -0.28527433 -0.002925651
-0.014832734 0.04603044 0.017034708 -0.06775228 0.011780864 0.13187242 0.16334824 0.14714736
0.07538057 0.03597919 0.10644611 0.022765392 0.12749587 -0.012648319 -0.18414919 -0.06619723
-0.01038332 -0.10011664 -0.19071282 0.03822318 0.010175125 -0.13154745 0.1976421 0.03453333
-0.100188985 0.19073002 -0.005270521 -0.10041011 0.15981752 0.1352633 -0.017447233 -0.06967857
0.24530233 0.03968494 -0.12400513 -0.14177783 -0.021109752 -0.16842799 0.034261238 0.05895798
0.13525754 -0.12817979 0.016807215 0.17424057 0.017582798 -0.11483478 -0.10764944 -0.012464015
0.040834926 0.1025199 0.0674884 -0.06313574 0.16738558 -0.030054603 0.11222318 -0.088043764
00000000: 1dce 943d 75c9 31be 1f29 0fbd 5f30 d3bd
00000010: 9009 09be 2213 d4bd 1f8c c7bc 777b 04be
00000020: 7068 923d 9fc8 e13b 37a0 ac3c 4521 e3bd
00000030: c2c8 0e3e fa78 e4bc b65d 0cbe 81fc 83bd
00000040: e4cb 14bd 1764 233e 8251 b8bd dab6 143b
00000050: 6718 ea3c bdce 433d 16cb 853d dc4d 3fbc
00000060: e81e 2bbd ab22 f33d a835 49be d322 ab3d
00000070: 159c fd3d 2ce6 f23d 9edf 3f3c d34a 67bd
00000080: 3d71 c8bd 00f7 cb3d b042 22bd 2994 6c3d
00000090: ebb3 87bc 8ae7 b0bd 6a34 49be c261 a53d
000000a0: 3d1e eb3d b7db df3d b823 8ebd c981 16be
000000b0: 1601 f93d efa9 ccbc e79d debd 4e59 77bd
000000c0: 20ae bc3d 944f 7e3d 5df5 933d 4aad 1abe
000000d0: 4798 f93d cabe 69bc 9756 28bd 5e52 b5bc
000000e0: 0990 f93d 461a ff3d dfeb 1f3e 7f9b 18bd
000000f0: a7ca 053e b53e 14bd 5634 7b3e 706f 763d
00000100: 5e6c 043e 179d 11bc 50ca 733d 30f4 8abd
00000110: ec3a bd3c 7f30 0cbe 96c1 b8bd 37fb c1bd
00000120: d3a1 403c 7822 dd3d 1a88 20bd fe67 963d
00000130: c25b ba3c 9e87 bebd 397c 3bbd 104f e0b7
00000140: 9de0 4d3d cf11 563d 4854 afbc c95b 08be
00000150: 5ff9 6a3d be3b 223d bea8 0fbd 2c98 e63d
00000160: 23a6 2e3c 4a60 61bc 44d2 44be df43 acbd
00000170: 3e71 223e abbb 113d caa1 643e 249e f73d
00000180: 134f 3fbc e922 69be 2a3b b0bd b65c 86bd
00000190: 02b3 e5bd b739 53bd 1ff8 c8bd 210c 023d
000001a0: cfca d7bd c649 a8bc ef5e babd b9ac 433d
000001b0: 60c3 093e 7a51 aabd 30f4 45bc f77f b4bd
000001c0: 26b3 cabd c7bf c5bd 3e03 06bd a374 0c3e
000001d0: 0fff 8a3d 4f2b 2d3b 7702 913c 7544 b7bd
000001e0: 2cf1 593e 34e3 8dbd a5c8 86be e87f f03d
000001f0: cefc d23d ebe6 13be 5170 cc3d 1019 b93d
00000200: f16d 823c 863d 553e cb5d f8bd ef37 8cbd
00000210: 0cb1 1b3d 2860 ab3d 4f26 0e3d 2c06 aebd
00000220: 5de0 16bd f2fe 6b3d f9c0 da3d fcbd e8bd
00000230: dd84 c8bd 9662 2abe 99c4 8f3c f6c2 213e
00000240: 442f f4bc 229a 573d d48a f33c ecdb 3bbd
00000250: 1353 9c3b 2ea8 2fbd 2888 24bc 0615 1b3d
00000260: 5aaa ce3d fbd9 193d b361 82bb eddb 3b3e
00000270: f408 833d b739 0f3e 7920 153e c10c 7a3c
00000280: a66b 9dbd a536 1bbd 6d1b 343e 6b72 1abd
00000290: 2175 123e 8a16 803c 824f 61bd e600 99bd
000002a0: 54ca d13d d2e4 89bd 6635 0d3e 5cf3 86bd
000002b0: 4a44 6c3d d125 96bb 0eae 463e 3dca 80bd
000002c0: a44d fc3d d027 193e ed4d 233d ebb1 953d
000002d0: e4ed 09bd 2dd7 dbbd d88d c7bb 846f 863d
000002e0: 935c 9e3d 8871 3f3b 7877 07be 9f0e 4abd
000002f0: d685 19bb 896a 893d f44d fe3d 8d92 c4bb
00000300: 4ef7 cdbb 03c6 dcbd b81b bbbd 7090 043d
00000310: 717a 66bd 926e 693d 7a0f 92be 47bc 3fbb
00000320: ff04 73bc 6a8a 3c3d 5f8c 8b3c b5c1 8abd
00000330: 8604 413c 9009 073e c344 273e ccad 163e
00000340: 2161 9a3d ea5e 133d 6b00 da3d 7d7e ba3c
00000350: 478e 023e e53a 4fbc 9b91 3cbe 6a92 87bd
00000360: cd1e 2abc f409 cdbd 394a 43be e98f 1c3d
00000370: 91b5 263c 60b4 06be b162 4a3e d272 0d3d
00000380: e22f cdbd bb4e 433e 56b4 acbb d1a3 cdbd
00000390: 34a7 233e 7682 0a3e 80ed 8ebc a3b3 8ebd
000003a0: 8930 7b3e ad8c 223d 67f6 fdbd 352e 11be
000003b0: 5cee acbc 6378 2cbe 8355 0c3d ec7d 713d
000003c0: f480 0a3e 9041 03be 49af 893c 1f6c 323e
000003d0: cd09 903c 7f2e ebbd 4f77 dcbd de35 4cbc
000003e0: 8642 273d f4f5 d13d 5c37 8a3d 504d 81bd
000003f0: 2067 2b3e 1235 f6bc 44d5 e53d 4a50 b4bd

sequential/conv2d_2/Conv2D f4 [64, 3, 3, 32]
0.05144507 -0.16467984 -0.08696576 0.012172789 -0.018379347 0.0901855 -0.09898032 -0.036945906
0.12434425 -0.032782063 0.108103774 0.05009656 -0.0041729915 -0.006746807 -0.013695351 0.1394535
-0.15967584 -0.14332123 -0.21349424 0.054312564 0.06740013 0.090018235 -0.053693973 0.030422594
0.15254241 -0.024191707 0.14942457 0.111135 0.08063136 0.054395705 -0.058901284 0.08524794
0.12291871 0.12978826 -0.0851557 0.0071975193 -0.0213217 -0.19396964 0.08411792 0.020374568
-0.19583543 0.09360887 0.11073057 -0.0065492666 0.0019959523 0.09728796 -0.026773293 -0.1694751
0.10111848 0.116631754 0.20158449 0.08230975 -0.12273774 -0.119502604 0.14060389 -0.09629317
-0.10853184 0.05177465 -0.18080887 -0.05833792 -0.16093387 0.03550601 0.0918836 -0.1603126
0.09683476 0.092336096 -0.071697265 0.081290916 0.01559089 -0.17058435 -0.191162 0.11272934
0.02463003 -0.20011766 -0.2866402 -0.116898246 0.08821474 0.054638833 -0.11062574 -0.097952716
-0.02323782 0.049991254 0.024036318 0.1424548 0.053933483 -0.07868098 0.098046236 -0.14951307
-0.15288183 0.10580148 -0.0881423 -0.18937185 0.10880144 -0.28935605 0.07305919 0.002861921
0.048146628 -0.062714584 -0.061715435 -0.03761726 -0.062927455 0.11215235 0.025410892 -0.019268334
0.07527819 -0.05057883 0.13239448 -0.11704429 0.015486771 0.13042015 -0.099215716 0.054765586
-0.16439053 -0.05967772 -0.08433796 -0.13399723 0.058091138 0.09277394 -0.02635877 0.12057366
0.028670954 0.088980176 0.13498248 -0.14243767 0.014121862 -0.036909338 -0.09469156 0.082139224
-0.0593012 0.156061 -0.043958902 0.14707717 0.04424023 -0.16138397 0.067326605 -0.15301967
-0.093405105 0.022947352 0.15025866 -0.013781946 0.1359509 -0.038521904 -0.11335824 -0.12788013
-0.11151042 0.13763173 0.20353213 -0.004062957 0.12084323 -0.042540755 0.06996605 0.05741663
-0.07779833 0.13576785 -0.08712245 0.01768855 -0.11184653 -0.008206821 0.06483355 0.05283701
-0.10466809 -0.009209985 0.053154957 0.10352668 -0.077503204 -0.016384395 0.058155112 0.07114619
0.14824472 -0.10037243 0.028397575 0.07310735 -0.021677405 -0.08055409 -0.14994456 0.14225604
0.16064471 -0.083724506 -0.031598277 0.130113 -0.0064032734 -0.09609973 0.12944448 -0.09320733
-0.03137083 -0.11146232 -0.0058446135 -0.17071617 0.019186148 -0.17520416 -0.035298195 -0.00057319575
-0.09907862 0.102346145 0.014760221 0.07454737 -0.19140506 -0.10142195 0.058335386 -0.07129792
-0.09614198 0.10165116 0.16292295 -0.16060159 -0.14039774 0.05346433 -0.04978287 -0.01717092
-0.11798695 -0.04014618 -0.058499224 -0.046787143 0.12902334 -0.16498452 -0.044527 -0.14510468
0.085436426 -0.14827383 -0.035971187 0.050862737 0.17048968 0.028220765 -0.061788872 0.0506659
-0.09359716 -0.032344546 -0.037201982 -0.0433853 0.07138192 0.09143445 0.024019126 0.007637009
0.10113942 -0.13331845 0.13816637 0.11106721 -0.043727882 -0.11245366 0.111277975 -0.15282308
-0.14438267 -0.03994006 0.08962522 0.036194984 -0.15985386 0.0212003 0.12712598 0.06077463
-0.09211451 0.062339533 0.061830677 0.0562715 0.08050343 0.04256706 -0.067869864 -0.15799278
00000000: 11b8 523d d5a1 28be 1b1b b2bd 6170 473c
00000010: 4990 96bc 2db3 b83d 32b6 cabd 9754 17bd
00000020: 33a8 fe3d 7c46 06bd 8365 dd3d 0d32 4d3d
00000030: 97bd 88bb 5214 ddbb 7762 60bc e6cc 0e3e
00000040: 1082 23be cdc2 12be 3c9e 5abe da76 5e3d
00000050: 1409 8a3d 7b5b b83d 36ee 5bbd ce38 f93c
00000060: 1434 1c3e b02d c6bc c102 193e bf9a e33d
00000070: 0e22 a53d 08ce 5e3d 7942 71bd 7996 ae3d
00000080: cebc fb3d 37e7 043e 1d66 aebd 2bd9 eb3b
00000090: d9aa aebc fa9f 46be 0446 ac3d 91e8 a63c
000000a0: 1589 48be 02b6 bf3d b6c6 e23d 3b9b d6bb
000000b0: 86ce 023b e93e c73d aa53 dbbc e18a 2dbe
000000c0: 3517 cf3d a1dc ee3d 2a6c 4e3e 0492 a83d
000000d0: ed5d fbbd c8bd f4bd 77fa 0f3e 5a35 c5bd
000000e0: f145 debd a811 543d f625 39be bef3 6ebd
000000f0: d9cb 24be c06e 113d 782d bc3d fc28 24be
00000100: 4d51 c63d b51a bd3d 04d6 92bd da7b a63d
00000110: ef70 7f3c aaad 2ebe f9bf 43be a4de e63d
00000120: ebc4 c93c a5eb 4cbe 81c2 92be 5968 efbd
00000130: eea9 b43d f8cc 5f3d bf8f e2bd 6f9b c8bd
00000140: 3e5d bebc a1c3 4c3d d0e7 c43c acdf 113e
00000150: 5be9 5c3d 7e23 a1bd 77cc c83d f419 19be
00000160: 0e8d 1cbe 72ae d83d f383 b4bd b2ea 41be
00000170: 4ad3 de3d 7a26 94be 0ea0 953d 118f 3b3b
00000180: 6635 453d 8170 80bd 53c9 7cbd 8e14 1abd
00000190: 1ce0 80bd 22b0 e53d 812a d03c a0d8 9dbc
000001a0: 742b 9a3d bf2b 4fbd 6b92 073e ebb4 efbd
000001b0: 3abc 7d3c dc8c 053e 9c31 cbbd e151 603d
000001c0: fe55 28be a070 74bd 61b9 acbd 9236 09be
000001d0: f9f0 6d3d 4300 be3d 59ee d7bc 53ef f63d
000001e0: 59df ea3c 3d3b b63d d938 0a3e 2edb 11be
000001f0: 625f 673c 3f2e 17bd a6ed c1bd 9c38 a83d
00000200: d1e5 72bd 74ce 1f3e 400e 34bd 669b 163e
00000210: 3e35 353d d741 25be 88e2 893d 30b1 1cbe
00000220: 2d4b bfbd 16fc bb3c 68dd 193e accd 61bc
00000230: b636 0b3e 25c9 1dbd 5d28 e8bd 02f3 02be
00000240: 935f e4bd 55ef 0c3e ba6a 503e 8e22 85bb
00000250: a87c f73d 373f 2ebd 5c4a 8f3d b32d 6b3d
00000260: bb54 9fbd ba06 0b3e 416d b2bd 94e7 903c
00000270: cb0f e5bd e775 06bc 74c7 843d 9f6b 583d
00000280: 395c d6bd 7ae5 16bc 03b9 593d cc05 d43d
00000290: 00ba 9ebd 9138 86bc 0e34 6e3d 18b5 913d
000002a0: 77cd 173e 1090 cdbd 08a2 e83c 4eb9 953d
000002b0: d094 b1bc 8bf9 a4bd 118b 19be 91ab 113e
000002c0: 0c80 243e c177 abbd 326d 01bd 583c 053e
000002d0: 8dd2 d1bb efcf c4bd 188d 043e 7ce3 bebd
000002e0: b37e 00bd 5b46 e4bd 2c84 bfbb 38d0 2ebe
000002f0: 452c 9d3c b868 33be d794 10bd 8442 16ba
00000300: bbe9 cabd db9a d13d dbd4 713c 4bac 983d
00000310: b0ff 43be 50b6 cfbd 16f1 6e3d a504 92bd
00000320: 16e6 c4bd 7c2e d03d 46d5 263e be74 24be
00000330: 6dc4 0fbe 6afd 5a3d 1fe9 4bbd 07aa 8cbc
00000340: 24a3 f1bd 5270 24bd e29c 6fbd e0a3 3fbd
00000350: b21e 043e b4f1 28be f261 36bd 5296 14be
00000360: 4bf9 ae3d 18d5 17be 8656 13bd 7255 503d
00000370: d994 2e3e 3c2f e73c 5416 7dbd 0c87 4f3d
00000380: deaf bfbd b77b 04bd 1b61 18bd c9b4 31bd
00000390: af30 923d fc41 bb3d c2c3 c43c e03f fa3b
000003a0: 2f22 cf3d a284 08be 7c7b 0d3e 3577 e33d
000003b0: 021c 33bd 1b4e e6bd b5e5 e33d a77d 1cbe
000003c0: 0dd9 13be 3098 23bd 6d8d b73d 3141 143d
000003d0: bbb0 23be 40ac ad3c 502d 023e d2ee 783d
000003e0: 88a6 bcbd bd57 7f3d 2a42 7d3d f27c 663d
000003f0: fbde a43d cc5a 2e3d 5bff 8abd dcc8 21be
